output/best.pth (torch, 231857 bytes, 5 tensors)

conv1.weight f4 [64, 1, 9, 9]
000000 da 66 c0 bc 1d 71 a6 3c 82 5f 3b bc c1 86 08 3d
       -0.023486543 0.020317608 -0.011436345 0.033331636
000010 24 44 b9 bd 42 61 01 bd 49 03 31 bd 76 97 bb 3b
       -0.090462 -0.031586893 -0.043216024 0.0057248427
000020 d5 71 56 3d c6 93 d4 3d 24 2e dc 3b c6 4d ba 3d
       0.052354652 0.10379748 0.0067193676 0.09096865
000030 52 bc d7 bd f6 de bc bc ff 6d 92 bd 1d 19 89 3c
       -0.10533966 -0.023055535 -0.07149886 0.016735608
000040 3d fb 5d 3c d7 2d 03 3e bd 5a d5 bd 65 0d f4 bb
       0.013548669 0.12810455 -0.104176976 -0.007447886
000050 81 60 6b 3d 31 a4 77 bd 18 8e b9 3d 7a 08 98 3d
       0.05746508 -0.06045932 0.09060305 0.07423492
000060 6f b3 99 bd fe 64 23 3b a9 2f 7e bd 6c ea 17 3e
       -0.07504927 0.0024932022 -0.06205717 0.14835519
000070 21 86 3b 3e 6f a7 1d 3d 06 2d 85 3e 7e 5e d3 3e
       0.18312885 0.038489755 0.26010913 0.4128303
000080 eb 13 49 3e 69 1c f3 3d d2 b3 82 3d ce a8 6f 3c
       0.19636504 0.11870653 0.06381954 0.0146276485
000090 fa 8c 22 be 17 95 27 be af 60 54 be 2f 13 6d bd
       -0.15874091 -0.16365467 -0.20740007 -0.057879623
0000a0 5a 06 07 3e ed ab b1 bd 45 41 9d bd 41 42 60 bd
       0.13186017 -0.0867537 -0.07678465 -0.054750685
0000b0 96 d0 0e be b1 e3 a3 bb cb 2c ad bc cc 2c 14 bd
       -0.13946757 -0.005001508 -0.021139523 -0.036175534
0000c0 2a 6a fb bb c6 d4 ed 3d 9b a9 01 bd 90 84 98 bc
       -0.007672568 0.11612849 -0.03165589 -0.018617898
0000d0 e8 f2 29 bd d6 ff dd bb 56 11 27 3d da c7 04 bd
       -0.04149142 -0.006774883 0.040788017 -0.032417156
0000e0 7e f6 24 3b de 91 f2 3c 6d 17 cf 3c 54 7c ab bd
       0.0025171335 0.02961057 0.025279725 -0.08373323
0000f0 36 3c 6c bb a7 fe b6 3d 29 96 e0 bc 0c 73 27 3d
       -0.003604663 0.0893529 -0.027415352 0.0408812
000100 eb a3 8d bc b9 fb 07 3d 40 db 24 bd c8 77 fc bb
       -0.017290076 0.033199046 -0.040248156 -0.0077047087
000110 e1 e2 36 bd 5a 6f f2 b9 b8 ae 87 3c a3 9a 4f 3d
       -0.044649962 -0.000462408 0.016562805 0.050684582
000120 69 91 8c bd 3e 63 ea bc f5 2c 99 3d 39 af 83 bd
       -0.06863672 -0.028611775 0.07479278 -0.064299054
000130 20 aa cc 3c df a8 ad bd 26 c1 10 bd f2 a8 3c 3d
       0.024983466 -0.08479475 -0.03534045 0.046059556
000140 03 63 71 bb 3e 6a b2 3a 1d e8 e7 bc 14 87 3d bd
       -0.0036832697 0.0013611985 -0.028308922 -0.0462714
000150 63 b7 89 bc 62 d4 57 bd b3 8d 93 be bf 37 f7 bd
       -0.016811078 -0.05269278 -0.28819045 -0.120711796
000160 60 50 cc 3c ba 06 18 3d 85 62 62 bd c2 e0 99 bb
       0.02494067 0.03711579 -0.055269737 -0.0046959827
000170 b2 2e 24 3d e0 b8 d7 3d f7 8e 9c bd d9 61 a0 bd
       0.040083595 0.10533309 -0.07644456 -0.07831163
000180 69 0c 25 3a 85 4e d9 bb 68 f3 06 3d 98 3c 58 3d
       0.00062961 -0.0066316747 0.032946974 0.05279216
000190 6c ba a4 3d 9c 9b a6 bd 48 76 e7 3c 22 aa 9d bd
       0.0804337 -0.08135149 0.028254643 -0.07698466
0001a0 34 ba df bb d1 ec 03 3b 36 6d 23 bd 24 05 d2 3d
       -0.006827617 0.0020130167 -0.039899074 0.10254887
0001b0 0b e7 1c 3c 54 18 86 bd 5a d9 a4 3c 09 fc 62 bd
       0.009576569 -0.06547609 0.020123173 -0.05541614
0001c0 4e 01 88 3d 69 2f 42 bc f1 62 ae bb c7 bc ce 3c
       0.06640874 -0.011852124 -0.0053218533 0.0252365
0001d0 03 90 19 bc f7 94 0b 3d d4 44 19 3d b6 74 53 3e
       -0.009372714 0.03407761 0.037419155 0.2064999
0001e0 df ea 54 3e dd 39 a2 3e 00 ee 7e 3e cc 31 55 bd
       0.20792721 0.3168477 0.24895477 -0.052049443
0001f0 cb fa 7b 3d 87 72 1f 3c 48 9c f3 bc 59 3b 46 bd
       0.06151847 0.009731895 -0.029737607 -0.048396442
000200 e6 90 d7 3c 3d 46 07 3e 44 15 1b bd 4e 12 6e 3b
       0.02631421 0.13210388 -0.037862077 0.0036326828
000210 0e 5f 33 bd 69 13 0b be 51 38 94 3b 87 23 e3 bd
       -0.043791823 -0.13581623 0.004523315 -0.11090761
000220 12 f5 08 3c 9f ec a0 3c cb 0e a0 ba 00 be 22 be
       0.008359211 0.01964408 -0.001221144 -0.15892792
000230 26 42 9d bd f6 91 03 bd d2 91 bc 3c 6c c0 14 3e
       -0.076786324 -0.03212162 0.023018751 0.14526528
000240 c5 98 22 ba 20 eb 54 bd d3 2c 26 bd dd 13 19 bd
       -0.0006202574 -0.051982045 -0.04057009 -0.03737246
000250 aa 4b 94 be ed c0 46 be 19 88 59 bd b3 09 a8 bd
       -0.28963977 -0.19409533 -0.05310831 -0.08204975
000260 45 d4 f1 bd 9f 68 da 3d 1d b8 b3 3d f4 e4 33 3e
       -0.11808065 0.10664486 0.08775351 0.17567807
000270 43 93 c0 bc a1 ef 88 bd 5b 55 56 bd 4d 4c 65 3e
       -0.02350772 -0.066863306 -0.052327495 0.22392388
000280 b9 c3 3d 3d 8a 9c 07 bd 8d 48 06 be b0 0a f1 3c
       0.046329234 -0.03310827 -0.13113613 0.029424042
000290 2f 1e 8f 3d f1 b8 fb 3d a9 3f d3 3d bc 36 80 3e
       0.06988179 0.12291134 0.103148766 0.2504176
0002a0 02 de 35 3e 0e 46 12 3d 99 1e 80 bd 03 d2 b8 bd
       0.1776047 0.03571134 -0.06255836 -0.090244316
0002b0 b8 b8 df bc db 6f ff bc a1 af 0c be 3b 60 e1 bd
       -0.02730976 -0.031181267 -0.13738872 -0.11004683
0002c0 f9 93 a2 bd 35 28 a8 ba 97 f3 ee 3b 89 48 8d bd
       -0.0793838 -0.0012829365 0.0072922218 -0.068986006
0002d0 47 2f 27 3e 3d 10 f7 3d 25 99 d0 3d e6 84 ba bd
       0.16326629 0.12063644 0.1018546 -0.091073796
0002e0 b4 db a0 bd 5f 46 e7 3a 4d 3f 4e 3b ec 25 83 3c
       -0.07854405 0.0017644874 0.0031470836 0.016009293
0002f0 e7 14 8e 3d 27 f8 82 bd af 21 dc bd 20 7c 33 be
       0.069375806 -0.063949876 -0.10748612 -0.17527819
000300 07 14 1c 3d 82 1f d3 3d 21 d0 dc bd 45 8b d8 bc
       0.038105037 0.10308744 -0.10781885 -0.026433596
000310 28 5a 12 3c b9 e2 18 3b 3c da c0 3d 09 ac f1 3c
       0.008932628 0.0023328497 0.09416625 0.029500978
000320 da 60 d4 bb ed e5 0c 3e 97 d9 72 3c 8b ed 80 be
       -0.006481272 0.13759585 0.014822385 -0.2518123
000330 26 83 71 be a5 0a 82 bd eb e8 03 3e 99 ca 62 bb
       -0.23585185 -0.063496865 0.1288182 -0.003460562
000340 63 44 c8 ba e2 04 07 3e 93 e9 88 3d 8d 40 6e be
       -0.001527917 0.13185456 0.06685176 -0.23266812
000350 11 f9 fb bd 54 e5 f6 bd 78 cf 5e 3b b4 24 87 39
       -0.12303365 -0.120554596 0.0033998173 0.00025776553
000360 31 45 00 3e 58 f5 8c bb 3b 85 8f 3c 88 cf 0d bd
       0.12526394 -0.004301708 0.017519584 -0.034621745
000370 16 6b b4 be 42 9c d1 bd 35 5e 69 3e 29 2b 89 3d
       -0.3523795 -0.10234882 0.22789843 0.06697685
000380 8d 68 80 3d dd c8 e3 bc 7c cb 4c 3d 00 05 04 be
       0.062699415 -0.02780574 0.049998745 -0.12892532
000390 79 a6 0e bd 31 6f da bd 67 60 fa 3d e6 85 89 3e
       -0.03482673 -0.10665739 0.122254185 0.2685997
0003a0 36 70 d2 bb 79 3c c2 bc f0 97 11 be 56 3f 9d bc
       -0.006422068 -0.023710476 -0.14218116 -0.01919524
0003b0 23 41 d6 3c 3f 07 18 be 29 ca 96 be 60 3b 4e 3e
       0.026154106 -0.14846514 -0.2945111 0.20139837
0003c0 80 ac c3 3e f0 8a 74 3d cc 34 1c be fa ae 59 bd
       0.38217545 0.059702814 -0.15254515 -0.053145386
0003d0 d9 d5 47 3d 83 8c c2 3c f7 4e f2 bd 02 45 9b bb
       0.048787925 0.023748642 -0.118314676 -0.004738451
0003e0 6c b4 c3 3c 2d ed 14 3d ef 94 58 3c ce 87 cf bb
       0.023889743 0.036359 0.013219102 -0.006333328
0003f0 9e 80 10 3e 59 41 4b bd 15 b5 55 bd b7 89 1f bd
       0.14111564 -0.049622867 -0.052174646 -0.038949694

conv1.bias f4 [64]
000000 43 1a d7 be 2c 8a a6 be 5f fa 05 3d a1 51 dd be
       -0.42012224 -0.32527292 0.032709476 -0.4322634
000010 df b6 18 3c 15 aa b4 bc 7e 7b 9e 3d 4a 64 44 bd
       0.009320944 -0.022053758 0.07738398 -0.047947206
000020 b9 b2 cb 3d dd e7 7d be 83 90 1b 3c 4f 6f 5b 3d
       0.09946198 -0.2479548 0.0094949035 0.05357295
000030 06 83 27 bd df f7 e4 3d 2d a5 e5 3d 29 b8 9f 3c
       -0.040896438 0.1118009 0.112131454 0.019496994
000040 50 11 b0 bd 9e ec 84 bd be 19 af 3d cc 9a 24 3d
       -0.08597052 -0.06490444 0.08549832 0.04018669
000050 33 6e 2a bd 1b 04 81 bc d9 b8 2b bd c7 71 c0 3c
       -0.041609 -0.015749028 -0.04192433 0.023491753
000060 8c d5 ad bc 7b d0 cb 3d b9 01 8f bc c3 e1 ce 3c
       -0.021219991 0.09951874 -0.017456876 0.025254136
000070 93 dd 01 bd 01 62 64 3b 75 d0 07 3e 6f c5 83 3d
       -0.03170545 0.0034848454 0.13263114 0.06434142
000080 90 a7 6d 3d ee c9 79 3c 7c 44 8f bb ff 7c 7d be
       0.05802113 0.015245898 -0.0043721776 -0.24754713
000090 4c ee 0a bd cc 72 90 3d e3 b8 91 bd 4d 42 11 3c
       -0.033918664 0.07053146 -0.071153425 0.008865905
0000a0 78 17 07 3e dd ce 25 bd a4 e7 eb 3d ae 6e a2 3c
       0.13192546 -0.040480483 0.11518791 0.019828167
0000b0 6f c5 f9 3d 0d 26 23 3d f0 f2 12 bc 7a d8 cc bc
       0.121958606 0.03983121 -0.008969054 -0.025005568
0000c0 ed 96 a0 3b ce 8a 9f bc 4f 0a 36 bd f1 6e a4 bc
       0.0049008043 -0.019475367 -0.044443425 -0.020072432
0000d0 d4 22 a3 3d 0c ca 22 bb cb 62 33 bd d0 f8 2c ba
       0.07965627 -0.0024839668 -0.04379539 -0.0006598355
0000e0 b6 cb 9f 3d f1 68 88 bd b7 52 fb bb ff 84 79 3e
       0.07802527 -0.06660641 -0.0076697725 0.2436714
0000f0 0d fe db 3d a2 41 e9 3b a2 0a 3c be 24 16 96 bc
       0.10741816 0.0071184197 -0.18363431 -0.018321104

conv2.weight f4 [32, 64, 5, 5]
000000 55 cb 83 3c 39 f5 89 3d a0 50 8a 3e 18 c4 60 3e
       0.016088167 0.06736226 0.27014637 0.21949804
000010 f4 00 15 3e 5a 71 51 3e 6b 7f 92 3c 93 a0 9d bd
       0.14551145 0.20453396 0.017883023 -0.07696643
000020 ae 0c 28 3d 4d 53 1b 3e 23 4e 9a bd e2 81 f5 bd
       0.041027717 0.15168495 -0.07534435 -0.11987664
000030 7e 94 0e be f0 e7 0c 3b aa 69 26 3e 9f c8 fb 3c
       -0.13923833 0.002150055 0.16251245 0.030735312
000040 6e 81 a4 3d de d5 3d 3d e2 2e 02 bd db cd 26 3e
       0.08032499 0.046346538 -0.031782992 0.16289465
000050 eb b3 93 3d aa f3 80 3d b1 98 1c 3d 26 19 72 bd
       0.07212051 0.06296475 0.038231555 -0.059106015
000060 05 62 03 be cf e5 79 3e 1b e0 a5 3e 87 75 d9 3d
       -0.1283036 0.24404071 0.3239754 0.1061812
000070 dc a4 e1 bd 98 0a 35 bc a9 2c e0 bd a3 67 26 be
       -0.110177726 -0.011049889 -0.10946018 -0.16250472
000080 0f 46 12 be 18 7d 35 be 3e 38 2b be f9 d0 d3 3d
       -0.14284538 -0.177235 -0.16720673 0.10342593
000090 16 5a 27 bc 3a e2 d9 3d c3 09 3c 3d c3 d0 61 3d
       -0.010214349 0.106388524 0.045907747 0.05513073
0000a0 04 9f 53 bd b0 fd ab bd a1 88 63 bd 47 43 47 bd
       -0.05166532 -0.083979964 -0.05555022 -0.048648145
0000b0 84 bc 37 bd 1b a3 7b 3b b0 82 8c 3d 78 1e f6 bc
       -0.044857517 0.003839678 0.06860864 -0.030043826
0000c0 3c 43 ef bc 19 ca e2 bd c9 f4 ca 3b 21 43 fa 3c
       -0.029206865 -0.11073703 0.0061937314 0.030549588
0000d0 6e a8 4a 3d d4 a7 df bc e4 d2 82 bd df 7f ab bd
       0.049477033 -0.027301706 -0.063878804 -0.08373999
0000e0 a1 0c fa bd ee 0b 81 3c cb 93 5f 3c bf ca 8e 3d
       -0.1220944 0.015752759 0.013646076 0.069722645
0000f0 4d c1 d8 3b fe 50 9d 3d 43 ce c9 3c d1 cd 81 3d
       0.00661484 0.07681464 0.024634486 0.063380845
000100 62 a6 1c be 7b 23 23 bd 8b 56 03 3c 34 22 56 bc
       -0.15297845 -0.03982876 0.008016239 -0.013069678
000110 c6 f1 20 3c 19 69 4c b9 42 96 22 bd 54 44 41 bd
       0.009823268 -0.00019494108 -0.03969408 -0.047184303
000120 7f 82 15 bd 88 b9 cc bd b1 bd e1 bb b6 7c 07 3e
       -0.036501404 -0.09996325 -0.006889068 0.13231167
000130 62 59 22 3d d8 fc 5a bd ff 95 30 bc 5b 26 d2 3b
       0.039636023 -0.053463787 -0.010777949 0.0064132637
000140 9c 26 3e 3d 70 3e 3c bd 85 3a f5 bd f0 f8 f5 3d
       0.04642354 -0.045957983 -0.11974052 0.12010372
000150 49 b2 09 3e 23 7d 11 3d c2 c0 25 be 1b a9 09 be
       0.13446917 0.03551973 -0.16186813 -0.13443415
000160 40 70 55 3d 0c 78 9f 3e 8a 8c 32 3d 4f 05 b5 bd
       0.052109003 0.31146276 0.04359106 -0.08838903
000170 3a da ec bd 0c bf 75 bc 03 3e 26 3e e4 5b 04 3e
       -0.11565061 -0.014999162 0.16234593 0.12925678
000180 8d 91 d7 3d e6 c5 a1 bd 1c c1 13 bd a6 28 41 be
       0.105258085 -0.07899074 -0.036072835 -0.18863162
000190 06 1f 7c bd 20 02 a4 bd ef a4 13 3d 7e 01 1e 3e
       -0.061553024 -0.08008218 0.036045965 0.15430257
0001a0 28 d7 b4 3d 7a 67 a1 3c 9e 48 85 3b b8 56 90 3d
       0.088301 0.019702662 0.0040674945 0.0704779
0001b0 34 59 95 3d 8a b1 24 bc 2e d2 eb bd d2 8c 28 bd
       0.07292405 -0.010052094 -0.11514698 -0.04114992
0001c0 78 d3 10 3d e7 76 a6 3d 07 a7 45 3c 66 21 9d bc
       0.035357922 0.081281476 0.012063748 -0.019180965
0001d0 c9 3e 37 3d 39 29 24 bd 56 f5 95 bb 10 48 5a 3d
       0.04473761 -0.040078375 -0.0045763655 0.05329138
0001e0 f8 e3 0f 3c 6c f5 27 3d 2a 7c 9e bd f4 bb 61 be
       0.008782379 0.041005537 -0.07738526 -0.22044355
0001f0 4c 64 21 be 79 70 9a 3d 00 e8 44 bc ea 08 2f bc
       -0.15760916 0.07540984 -0.012018204 -0.010683278
000200 dc 98 7a 3b 94 14 9c bd 2a d1 51 3d d5 02 0e bd
       0.0038238084 -0.076211125 0.051224865 -0.03467067
000210 fe 1c 9e 3d 8f 5b 91 bb 42 f0 59 bd dc e0 36 bd
       0.077203736 -0.0044359635 -0.053207643 -0.044648036
000220 0d 97 01 be 29 a8 7d bc ac 54 a6 3b cc 7b 73 bd
       -0.12655278 -0.015481987 0.0050760116 -0.059444234
000230 cd ea 36 bd b7 13 3a bd 6e b7 fa 3c 6b cb e8 3c
       -0.044657517 -0.045428958 0.030605044 0.02841731
000240 00 7a d0 3c 91 91 0e be 3d bf a6 bc 15 1d c5 3d
       0.0254488 -0.13922717 -0.020354861 0.096246876
000250 1b e3 95 3d 72 2d e6 bd c0 4a 78 bc 96 4e 2b 3d
       0.073187076 -0.11239137 -0.015154541 0.041822992
000260 48 3d e1 bc 17 a7 6d 3c 06 56 76 3e 11 3d c2 3d
       -0.027495041 0.014505169 0.24056253 0.09484304
000270 e1 69 2d bd 77 29 68 be 47 79 c8 bd 15 6a 19 3e
       -0.042337302 -0.22672068 -0.09788757 0.14981873
000280 20 20 12 3c 5e a2 50 3d e8 5e 89 3d ae 80 6a 3b
       0.008918792 0.050936095 0.06707555 0.0035782265
000290 e6 50 e4 3c d2 2e 7e 3d ab e9 a4 3d 34 1d 4a 3e
       0.027870607 0.06205637 0.08052381 0.19737703
0002a0 e6 13 12 3e 2d 94 95 3e 1d 52 ec 3d 96 6e 09 3e
       0.14265403 0.29214612 0.11539099 0.13421091
0002b0 32 a9 2c 3e e7 50 a1 bd 79 d8 c1 3c f3 92 26 bc
       0.16861418 -0.07876759 0.023662793 -0.010166871
0002c0 78 bd 2b 3c 95 36 fb 3b da 59 20 bd 57 a7 ad bc
       0.010482185 0.007666419 -0.03914819 -0.021197958
0002d0 37 e4 da 3c 15 cd 38 3b 94 7e df 3a dc 85 4f bd
       0.02672015 0.002819841 0.0017051273 -0.050664768
0002e0 44 a1 b6 bd c0 9e 2e 3d 30 46 cc 3d 41 6c c9 3b
       -0.08917478 0.042631865 0.09974325 0.006146938
0002f0 2e df 9b bd 68 f5 71 bd de 2d c2 3d cb 16 7f 3d
       -0.076109275 -0.05907193 0.09481405 0.062277596
000300 fe 2f 1d 3d 1b d4 51 3d 51 8e 59 3c cf 49 0f 3d
       0.038375847 0.05122767 0.01327856 0.0349825
000310 42 55 23 3d f9 91 9f 3d b6 f3 9a bb 4c 74 83 3c
       0.03987623 0.07791514 -0.0047287596 0.016046666
000320 5c 37 e8 3b c7 d3 65 3e d5 5b 9f 3c 25 a3 06 3e
       0.0070866775 0.22444068 0.019452969 0.13148172
000330 74 4f 14 bd 2b f5 1d be 6c d0 62 bd 69 6d 8d bd
       -0.036208585 -0.15425555 -0.055374548 -0.06905634
000340 73 18 64 3d ae 95 7b bd 40 72 93 bd cb 00 9b be
       0.05568738 -0.061422043 -0.07199526 -0.30274042
000350 b9 cb 22 be 9b fd 96 3d 97 0a 4c 3e 30 8b 7f 3c
       -0.15898027 0.0737259 0.19925915 0.01559715
000360 0c e0 de bd df 8b a0 3c b5 62 ac bc 5a c0 eb 3d
       -0.10882577 0.019597946 -0.02104316 0.115112975
000370 fc fe 45 be cb a7 4a 3d 52 1f 35 3d 79 cd 46 3d
       -0.1933555 0.049476426 0.044219323 0.048535798
000380 0d 52 93 bd 72 0c 9c bd e2 d7 40 bc 72 6f ff bb
       -0.07193384 -0.07619561 -0.0117702205 -0.0077952677
000390 e9 2c 08 bd 82 c6 26 3d 5f 1b 1a bd ba c2 dd bc
       -0.033245955 0.040716656 -0.03762376 -0.027070392
0003a0 5f fd db 3c 58 38 d1 3a 31 0e ae bd 09 c2 01 3d
       0.026854215 0.0015962226 -0.084988005 0.031679187
0003b0 e8 10 0f 3d 02 d9 4d 3d 6f ff e8 bc 6f 3c 30 bd
       0.034928232 0.050255783 -0.028442113 -0.043026384
0003c0 66 a4 7a 3c 86 9c 83 bc ce 1f 9e 3d 27 09 6b bd
       0.015297985 -0.016065847 0.0772091 -0.057381775
0003d0 0a ad d2 bc b4 1e 2b bd d1 01 11 3d da f5 8a 3c
       -0.025717277 -0.041777328 0.035402123 0.016962934
0003e0 bd e4 82 bd 31 27 17 be 64 41 5d 3d f8 bb 12 3d
       -0.063912846 -0.14761044 0.05401744 0.035823792
0003f0 4d e1 82 3d e5 26 08 3e 17 99 e3 3c e9 c2 6a bd
       0.06390629 0.13296087 0.02778296 -0.057314787

conv2.bias f4 [32]
000000 34 d9 39 3d 56 44 1a 3d 4e 65 f4 bb 68 65 83 bd
       0.045373157 0.037662826 -0.0074583655 -0.06415826
000010 5a bc 5e 3d 80 a5 3f bd d7 da 5a bd 8a 58 1a 3e
       0.054378845 -0.046788692 -0.05343136 0.15072837
000020 64 0e 24 3b 93 70 7f bd 69 ee 16 bb c2 cd 0c 3b
       0.0025032992 -0.06236322 -0.0023030287 0.0021484946
000030 c6 ea ce 3d 6a dc 5c 3d 11 8d a8 bb 0d 09 c8 ba
       0.10103373 0.05392114 -0.0051437696 -0.0015261486
000040 7c fe 5c 3c 80 ff b9 bc 6f ba a5 3c bf 47 8b 3d
       0.013488408 -0.02270484 0.0202305 0.06800794
000050 09 8d fe 3c 17 4e 08 3b 90 ad 7c bd 67 03 44 bb
       0.03107311 0.0020798498 -0.06168896 -0.0029909255
000060 a0 80 56 3c ef 09 8e bc 64 dd ec 3c ce e6 89 3c
       0.01309219 -0.017338721 0.028914161 0.016833689
000070 68 44 07 3d d2 d7 ab 3c 27 9f d0 3d 83 92 2a 3d
       0.03302422 0.020976935 0.10186606 0.04164363

conv3.weight f4 [1, 32, 5, 5]
000000 f5 d0 40 3c 86 8c 42 3c f0 4b d7 bb 21 ec 89 3c
       0.011768569 0.011874324 -0.0065703318 0.016836228
000010 3d 9e b0 3c e5 3a e2 bc 63 ad b1 3b 8e 07 df bc
       0.021559829 -0.027615974 0.0054222806 -0.027225282
000020 1b 5a d7 3b a7 50 32 3c 48 55 5e bb d9 ac 09 3d
       0.0065720207 0.010883487 -0.0033925343 0.033612106
000030 dd 94 c9 3c 71 09 9c bc d4 56 aa 3b 91 f4 5e bc
       0.024607116 -0.01904747 0.005198339 -0.013608114
000040 1f b4 ca bc a5 16 ac 3b db 82 c9 bc d6 2c d2 3c
       -0.024744092 0.005251723 -0.02459853 0.025656145
000050 9d e1 9e 3b 0f c4 0b 3c 65 53 92 3c 75 4d e3 3c
       0.0048486725 0.008530631 0.017862031 0.027746895
000060 c3 cb 95 bc 40 b1 4e 3b 40 cf 0c bd 84 41 30 3b
       -0.018285638 0.0031538755 -0.034377337 0.002689452
000070 9a 47 90 3c 4b 8d b9 bc ff fd 3c 3c b6 f4 2b bc
       0.017612267 -0.022650382 0.011535167 -0.010495355
000080 70 71 74 3c 49 f7 8f bc ba f0 df 3b 8e 2a c4 bc
       0.014919624 -0.01757397 0.0068341168 -0.023946073
000090 6b 5c 27 3d e1 67 0c 3c c9 0e d3 3c 25 8f 26 bc
       0.04085962 0.008569689 0.025763886 -0.010165964
0000a0 da a1 3d 3c 95 7a 8b bc 62 62 3b bc 75 60 a8 bc
       0.011574233 -0.017026225 -0.0114370305 -0.020553807
0000b0 c4 8a 1a 3c 6d ea 02 3c 7b 0c 6d 3c 18 d5 90 bb
       0.009432498 0.007990462 0.014468308 -0.004419934
0000c0 65 f4 76 bb 70 e1 62 3c ee 6e 5f bc 6f ff 3d bc
       -0.0037682292 0.013847694 -0.013637288 -0.011596545
0000d0 ba 24 de 3c c2 2d f2 bc 11 41 8c bc 0d 01 9f bc
       0.027117122 -0.029562835 -0.01712087 -0.01940968
0000e0 56 d7 f0 bb 1e 21 d3 bc 04 41 0b 3c 5d 3d ca bc
       -0.007349889 -0.025772627 0.008499388 -0.024687463
0000f0 f3 94 77 bc 08 d2 0d bd 8b 73 c0 3c c0 82 ae bc
       -0.015111196 -0.03462413 0.023492595 -0.02130258
000100 ed ac 8d bb 52 bb aa bc 0f f3 a0 bb 46 1f e0 bb
       -0.004323593 -0.020841274 -0.0049117873 -0.0068396656
000110 c0 c6 3c bc 38 eb 22 ba cc 98 7a 3c 95 55 ef 3c
       -0.011521995 -0.000621486 0.015295219 0.029215613
000120 7f f3 d5 3c 34 6c d6 bc b9 a0 85 bb bb 10 e6 3c
       0.026117085 -0.026174642 -0.0040779975 0.02808415
000130 9d 3a cf 3c 19 e2 08 3d 1a 2c d0 3c 70 71 3b 3c
       0.025296504 0.03341875 0.025411654 0.01144062
000140 af 6f 75 3d 58 6a 73 3d 18 e4 62 3d 36 01 ec 3c
       0.059920963 0.05942759 0.05539331 0.028809171
000150 62 92 01 3c ae b4 13 bc 6b c5 66 bc b8 b4 f6 bb
       0.007908436 -0.009015245 -0.014085154 -0.0075288676
000160 42 c2 1c bc 67 6d f4 bb 60 79 e5 bc fb 8b 66 bd
       -0.009567799 -0.007459331 -0.028011978 -0.05628584
000170 c8 43 92 bd 01 58 0d bd 63 cf 7c bc 4c ed 3c bc
       -0.071418345 -0.034507755 -0.015430304 -0.011531185
000180 ea 43 de bc 68 7c 01 bd 23 4b 41 bc 63 a4 01 bb
       -0.027131993 -0.031612784 -0.011797699 -0.001978182
000190 c6 0a a3 bb 8b a7 7c bb a0 f2 0f 3c 3d f4 20 bc
       -0.0049756495 -0.0038552012 0.008785874 -0.009823856
0001a0 47 e5 b4 3a a1 e0 9e bc aa 52 bf 3c 95 f4 5f 3b
       0.001380124 -0.01939422 0.023354847 0.0034172882
0001b0 88 79 ae 3c 9c 08 9d bc d4 89 ee bc c4 39 92 3b
       0.021298185 -0.019169144 -0.029118456 0.0044624526
0001c0 18 8c c1 bc ad 64 b2 3c ce 87 a5 3c 83 00 7a 3c
       -0.023626372 0.021776522 0.020206358 0.015258911
0001d0 bf 09 90 3c ca 34 0b 3c 45 9c 05 3c 2f 41 f6 bb
       0.017582772 0.008496473 0.008154933 -0.0075150947
0001e0 fa fa cb 3c 3a 15 c0 3b 1d 03 33 bc 5c 6d 2a bd
       0.024899948 0.0058619054 -0.010926035 -0.0416082
0001f0 c9 3f 63 bb 9d ed 5a bc 7c 08 aa 3c 50 14 37 3d
       -0.003467547 -0.0133623155 0.020755999 0.044697106
000200 ea 48 c7 3c ba e0 fe bb b3 98 29 39 96 14 c2 bc
       0.02432676 -0.0077782543 0.00016173981 -0.023691457
000210 6e 04 3c 3c b8 9a b9 ba 4f b8 70 bc 63 9f 06 bc
       0.0114756655 -0.001416049 -0.01469238 -0.008216712
000220 23 e3 3b 3b b0 d5 24 bd 6c fc d2 bc 4f b2 97 3c
       0.002866932 -0.04024285 -0.02575513 0.018517641
000230 5e 93 a0 3c 8c a7 52 bc 2d 24 96 bc ea 7f 76 3c
       0.01960152 -0.012857329 -0.018327797 0.0150451455
000240 3c fd d1 bb 64 39 a7 3b bd 36 24 bb 8b 63 25 3c
       -0.0064083617 0.005103277 -0.002505704 0.010094534
000250 d6 1c db 3c 8c 79 73 bc fd 0a 9a 3c 0f 2d 0b 3b
       0.026747148 -0.014860522 0.018804068 0.0021236574
000260 4b ff 4c 3c 2c 5a 54 3c 1c 5c 1d 3c e8 93 2e 3c
       0.012512038 0.012960952 0.00960448 0.010655381
000270 3c 03 90 bb 98 d4 7b bc 5c 3a 3d bb 52 f3 1b 3c
       -0.004394917 -0.0153705105 -0.0028873896 0.009518461
000280 c3 ce 96 3c ca 5b 9f bb ba ff b2 bc f1 59 8b bc
       0.018409139 -0.004863237 -0.021850456 -0.01701066
000290 34 f0 52 bc bd 8a 81 3a 11 04 63 3c 37 e3 f4 3b
       -0.012874652 0.0009883266 0.01385595 0.007473375
0002a0 0c a1 92 3c 56 ba d1 bc 82 67 91 bc 6c 41 d0 3c
       0.017899059 -0.025601547 -0.017749552 0.02542182
0002b0 f5 6d 45 bb 93 5e d4 3c f8 21 af 3b be 96 88 bb
       -0.0030125354 0.025924003 0.0053446256 -0.0041683605
0002c0 22 09 c4 3c 00 08 01 3d 35 8e 39 bc 9d d7 14 3b
       0.023930136 0.03150177 -0.011325409 0.0022711523
0002d0 6c 43 fb 3c 39 68 d6 3c e7 15 82 3c a8 c1 9f bc
       0.030671798 0.026172744 0.015879584 -0.019501522
0002e0 73 3f a4 bc b1 b0 d5 3c 09 2a a6 3c 0f 42 7f 3a
       -0.020049786 0.02608523 0.020283716 0.00097373215
0002f0 52 be 15 3d e7 c0 ec 3c fc 28 ca bb 9a e5 83 3c
       0.036558457 0.028900577 -0.0061694365 0.016100693
000300 22 dc 1e 3d d5 24 bb 3c ff 29 68 bc ec b3 ea bc
       0.038784154 0.022844711 -0.014170169 -0.028650247
000310 28 af 6a 3c 04 25 ab 3c 8a 16 e6 bc 91 36 43 3c
       0.014323987 0.020891674 -0.02808692 0.011914865
000320 75 bd b2 bc 84 49 68 3c a4 b0 89 bc a7 66 d8 bc
       -0.021818856 0.014177684 -0.016807862 -0.026416136
000330 7e af 0b 3d 6f 4d ae 3c 7a fe 5a bc 96 28 cd bc
       0.03410291 0.021277158 -0.013366336 -0.025043767
000340 ce 33 c5 3c 15 d6 b4 bc 75 24 36 bc 5d f8 7d bc
       0.024072554 -0.022074739 -0.0111170905 -0.015501109
000350 b0 f3 24 3c 01 61 48 bb 2f 05 57 3c 23 43 a5 bc
       0.010067865 -0.0030575397 0.013123794 -0.020173615
000360 85 42 d4 3c d8 df 95 3b 55 9a c7 bc 5d 27 d3 bc
       0.025910625 0.0045738034 -0.024365583 -0.025775606
000370 c4 14 ae 3c 7a 78 7c bc 2e 9c 1f 3c 7c 3d 7a 3a
       0.021250136 -0.015409583 0.009741826 0.0009545905
000380 86 1e 86 bc 60 ee eb 3c 01 8c 53 bc 36 48 84 3b
       -0.016371977 0.02880019 -0.0129117975 0.0040369285
000390 2a af d7 3b 3f 84 bf ba ac 44 e2 3c 04 00 bb bc
       0.0065821605 -0.0014611556 0.027620636 -0.022827156
0003a0 cd ba c3 36 f3 7b 9c 39 23 db 86 3a 93 bf 81 bb
       5.8331993e-06 0.00029846988 0.0010288697 -0.003959605
0003b0 02 47 83 bc 3a 7a d0 bc 69 4d 82 3c 88 c0 cc 3a
       -0.01602507 -0.025448907 0.015906053 0.0015621344
0003c0 49 90 b7 bc 1d 44 52 3c cf 5e 93 bc 89 0c dc bc
       -0.022407668 0.012833622 -0.017989544 -0.026861446
0003d0 1e 8c 36 3c 8d 66 a2 bc ae 63 b8 3c 63 98 19 3d
       0.011141805 -0.01982429 0.022508468 0.037498843
0003e0 b9 86 55 3b 71 62 9f 3b d2 bb f8 bc a7 d0 6d bc
       0.0032581522 0.00486403 -0.030362997 -0.014515079
0003f0 a2 5a b9 ba 23 67 fb 3b 3d d6 60 3c 6d 9a 9e 3c
       -0.001414139 0.007672207 0.013722953 0.019360745
